…
ot(history.history['val_loss'], '-b', label=\"Validation\")\nplt.xlabel('Epoch #')\nplt.ylabel('Loss')\nplt.legend()\nplt.subplot(122)\nplt.plot(history.history['accuracy'], '-r', label=\"Training\")\nplt.plot(history.history['val_accuracy'], '-b', label=\"Validation\")\nplt.xlabel('Epoch #')\nplt.ylabel('Accuracy')\nplt.legend()\nplt.show()\n\nModel: \"sequential\"\n_________________________________________________________________\n Layer (type)                Output Shape              Param #   \n=================================================================\n dense (Dense)               (None, 150)               117750    \n                                                                 \n batch_normalization (BatchN  (None, 150)              600       \n ormalization)                                                   \n                                                                 \n activation (Activation)     (None, 150)               0         \n                                                                 \n dropout (Dropout)           (None, 150)               0         \n                                                                 \n dense_1 (Dense)             (None, 100)               15100     \n                                                                 \n batch_normalization_1 (Batc  (None, 100)              400       \n hNormalization)                                                 \n                                                                 \n activation_1 (Activation)   (None, 100)               0         \n                                                                 \n dropout_1 (Dropout)         (None, 100)               0         \n                                                                 \n dense_2 (Dense)             (None, 10)                1010      \n                                                                 \n activation_2 (Activation)   (None, 10)                0         \n                                                                 \n=================================================================\nTotal params: 134,860\nTrainable params: 134,360\nNon-trainable params: 500\n_________________________________________________________________\nNone\nEpoch 1/20\n\n\n2022-11-29 15:53:53.535515: I tensorflow/core/grappler/optimizers/custom_graph_optimizer_
…
 to 0. Your kernel may not have been built with NUMA support.\n2022-11-15 10:18:43.571329: I tensorflow/core/common_runtime/pluggable_device/pluggable_device_factory.cc:271] Created TensorFlow device (/job:localhost/replica:0/task:0/device:GPU:0 with 0 MB memory) -> physical PluggableDevice (device: 0, name: METAL, pci bus id: <undefined>)\n\n\nModel: \"sequential\"\n_________________________________________________________________\n Layer (type)                Output Shape              Param #   \n=================================================================\n conv2d (Conv2D)             (None, 26, 26, 16)        160       \n                                                                 \n activation (Activation)     (None, 26, 26, 16)        0         \n                                                                 \n max_pooling2d (MaxPooling2D  (None, 13, 13, 16)       0         \n )                                                               \n                                                                 \n flatten (Flatten)           (None, 2704)              0         \n                                                                 \n dense (Dense)               (None, 100)               270500    \n                                                                 \n activation_1 (Activation)   (None, 100)               0         \n                                                                 \n dense_1 (Dense)             (None, 10)                1010      \n                                                                 \n activation_2 (Activation)   (None, 10)                0         \n                                                                 \n=================================================================\nTotal params: 271,670\nTrainable params: 271,670\nNon-trainable params: 0\n_________________________________________________________________\nNone\n\n\nNote the use of Flatten() to transform the 13x13x16 tensor representing the max-pooling layer into a ve
…
.Dense(10, activation='softmax'))\n\n# Learning rule\noptimizer = tf.keras.optimizers.SGD(learning_rate=0.01, decay=1e-6, momentum=0.9, nesterov=True)\n\n# Loss function\nmodel.compile(\n    loss='categorical_crossentropy', # loss\n    optimizer=optimizer, # learning rule\n    metrics=['accuracy'] # show accuracy\n)\n\nprint(model.summary())\n\nModel: \"sequential\"\n_________________________________________________________________\n Layer (type)                Output Shape              Param #   \n=================================================================\n conv2d (Conv2D)             (None, 26, 26, 32)        320       \n                                                                 \n max_pooling2d (MaxPooling2D  (None, 13, 13, 32)       0         \n )                                                               \n                                                                 \n dropout (Dropout)           (None, 13, 13, 32)        0         \n                                                                 \n conv2d_1 (Conv2D)           (None, 11, 11, 64)        18496     \n                                                                 \n max_pooling2d_1 (MaxPooling  (None, 5, 5, 64)         0         \n 2D)                                                             \n                                                                 \n dropout_1 (Dropout)         (None, 5, 5, 64)          0         \n                                                                 \n flatten (Flatten)           (None, 1600)              0         \n                                                                 \n dense (Dense)               (None, 150)               240150    \n                                                                 \n dropout_2 (Dropout)         (None, 150)               0         \n                                                                 \n dense_1 (Dense)             (None, 10)                1510      \n                                                                 \n=================================================================\nTotal params: 260,476\nTrainable params: 260,476\nNon-trainable params: 0\n_________________________________________________________________\nNone\n\n\n\nhistory = tf.keras.callbacks.History()\n\nmodel.fit(\n    X_train, T_train,\n    batch_size=64, \n    ep
…
history.history['binary_accuracy'], '-r', label=\"Training\")\nplt.plot(history.history['val_binary_accuracy'], '-b', label=\"Validation\")\nplt.xlabel('Epoch #')\nplt.ylabel('Accuracy')\nplt.legend()\n\nplt.show()\n\nModel: \"model\"\n_________________________________________________________________\n Layer (type)                Output Shape              Param #   \n=================================================================\n input_1 (InputLayer)        [(None, 150, 150, 3)]     0         \n                                                                 \n conv2d (Conv2D)             (None, 148, 148, 16)      448       \n                                                                 \n activation (Activation)     (None, 148, 148, 16)      0         \n                                                                 \n max_pooling2d (MaxPooling2D  (None, 74, 74, 16)       0         \n )                                                               \n                                                                 \n dropout (Dropout)           (None, 74, 74, 16)        0         \n                                                                 \n conv2d_1 (Conv2D)           (None, 72, 72, 32)        4640      \n                                                                 \n activation_1 (Activation)   (None, 72, 72, 32)        0         \n                                                                 \n max_pooling2d_1 (MaxPooling  (None, 36, 36, 32)       0         \n 2D)                                                             \n                                                                 \n dropout_1 (Dropout)         (None, 36, 36, 32)        0         \n                                                                 \n conv2d_2 (Conv2D)           (None, 34, 34, 64)        18496     \n                                                                 \n activation_2 (Activation)   (None, 34, 34, 64)        0         \n                                                                 \n max_pooling2d_2 (MaxPooling  (None, 17, 17, 64)       0         \n 2D)                                                             \n                                                                 \n dropout_2 (Dropout)         (None, 17, 17, 64)        0         \n                                                                 \n conv2d_3 (Conv2D)           (None, 15, 15, 64)        36928     \n                                                                 \n activation_3 (Activation)   (None, 15, 15, 64)        0         \n                                                                 \n max_pooling2d_3 (MaxPooling  (None, 7, 7, 64)         0         \n 2D)                                                             \n                                                                 \n dropout_3 (Dropout)         (None, 7, 7, 64)          0         \n                                                                 \n flatten (Flatten)           (None, 3136)              0         \n                                                                 \n dense (Dense)               (None, 512)               1606144   \n                                                                 \n dropout_4 (Dropout)         (None, 512)               0         \n                                                                 \n dense_1 (Dense)             (None, 1)                 513       \n                                                                 \n=================================================================\nTotal params: 1,667,169\nTrainable params: 1,667,169\nNon-trainable params: 0\n_________________________________________________________________\nNone\nEpoch 1/30\n\n\n2022-11-15 10:35:37.036309: I tensorflow/core/grappler/optimizers/custom_graph_optimizer_
…
__________________________________________________________________\n Layer (type)                   Output Shape         Param #     Connected to                     \n==================================================================================================\n input_1 (InputLayer)           [(None, 150, 150, 3  0           []                               \n                                )]                                                                \n                                                                                                  \n block1_conv1 (Conv2D)          (None, 74, 74, 32)   864         ['input_1[0][0]']                \n                                                                                                  \n block1_conv1_bn (BatchNormaliz  (None, 74, 74, 32)  128         ['block1_conv1[0][0]']           \n ation)                                                                                           \n                                                                                                  \n block1_conv1_act (Activation)  (None, 74, 74, 32)   0           ['block1_conv1_bn[0][0]']        \n                                                                                                  \n block1_conv2 (Conv2D)          (None, 72, 72, 64)   18432       ['block1_conv1_act[0][0]']       \n                                                                                                  \n block1_conv2_bn (BatchNormaliz  (None, 72, 72, 64)  256         ['block1_conv2[0][0]']           \n ation)                                                                                           \n                                                                                                  \n block1_conv2_act (Activation)  (None, 72, 72, 64)   0           ['block1_conv2_bn[0][0]']        \n                                                                                                  \n block2_sepconv1 (SeparableConv  (None, 72, 72, 128)  8768       ['block1_conv2_act[0][0]']       \n 2D)                                                                                              \n                                                                                                  \n block2_sepconv1_bn (BatchNorma  (None, 72, 72, 128)  512        ['block2_sepconv1[0][0]']        \n lization)                                                                                        \n                                                                                                  \n block2_sepconv2_act (Activatio  (None, 72, 72, 128)  0          ['block2_sepconv1_bn[0][0]']     \n n)                                                                                               \n                                                                                                  \n block2_sepconv2 (SeparableConv  (None, 72, 72, 128)  17536      ['block2_sepconv2_act[0][0]']    \n 2D)                                                                                              \n                                                                                                  \n block2_sepconv2_bn (BatchNorma  (None, 72, 72, 128)  512        ['block2_sepconv2[0][0]']        \n lization)                                                                                        \n                                                                                                  \n conv2d (Conv2D)                (None, 36, 36, 128)  8192        ['block1_conv2_act[0][0]']       \n                                                                                                  \n block2_pool (MaxPooling2D)     (None, 36, 36, 128)  0           ['block2_sepconv2_bn[0][0]']     \n                                                                                                  \n batch_normalization (BatchNorm  (None, 36, 36, 128)  512        ['conv2d[0][0]']                 \n alization)                                                                                       \n                                                                                                  \n add (Add)                      (None, 36, 36, 128)  0           ['block2_pool[0][0]',            \n                                                                  'batch_normalization[0][0]']    \n                                                                                                  \n block3_sepconv1_act (Activatio  (None, 36, 36, 128)  0          ['add[0][0]']                    \n n)                                                                                               \n                                                                                                  \n block3_sepconv1 (SeparableConv  (None, 36, 36, 256)  33920      ['block3_sepconv1_act[0][0]']    \n 2D)                                                                                              \n                                                                                                  \n block3_sepconv1_bn (BatchNorma  (None, 36, 36, 256)  1024       ['block3_sepconv1[0][0]']        \n lization)                                                                                        \n                                                                                                  \n block3_sepconv2_act (Activatio  (None, 36, 36, 256)  0          ['block3_sepconv1_bn[0][0]']     \n n)                                                                                               \n                                                                                                  \n block3_sepconv2 (SeparableConv  (None, 36, 36, 256)  67840      ['block3_sepconv2_act[0][0]']    \n 2D)                                                                                              \n                                                                                                  \n block3_sepconv2_bn (BatchNorma  (None, 36, 36, 256)  1024       ['block3_sepconv2[0][0]']        \n lization)                                                                                        \n                                                                                                  \n conv2d_1 (Conv2D)              (None, 18, 18, 256)  32768       ['add[0][0]']                    \n                                                                                                  \n block3_pool (MaxPooling2D)     (None, 18, 18, 256)  0           ['block3_sepconv2_bn[0][0]']     \n                                                                                                  \n batch_normalization_1 (BatchNo  (None, 18, 18, 256)  1024       ['conv2d_1[0][0]']               \n rmalization)                                                                                     \n                                                                                                  \n add_1 (Add)                    (None, 18, 18, 256)  0           ['block3_pool[0][0]',            \n                                                                  'batch_normalization_1[0][0]']  \n                                                                                                  \n block4_sepconv1_act (Activatio  (None, 18, 18, 256)  0          ['add_1[0][0]']                  \n n)                                                                                               \n                                                                                                  \n block4_sepconv1 (SeparableConv  (None, 18, 18, 728)  188672     ['block4_sepconv1_act[0][0]']    \n 2D)                                                                                              \n                                                                                                  \n block4_sepconv1_bn (BatchNorma  (None, 18, 18, 728)  2912       ['block4_sepconv1[0][0]']        \n lization)                                                                                        \n                                                                                                  \n block4_sepconv2_act (Activatio  (None, 18, 18, 728)  0          ['block4_sepconv1_bn[0][0]']     \n n)                                                                                               \n                                                                                                  \n block4_sepconv2 (SeparableConv  (None, 18, 18, 728)  536536     ['block4_sepconv2_act[0][0]']    \n 2D)                                                                                              \n                                                                                                  \n block4_sepconv2_bn (BatchNorma  (None, 18, 18, 728)  2912       ['block4_sepconv2[0][0]']        \n lization)                                                                                        \n                                                                                                  \n conv2d_2 (Conv2D)              (None, 9, 9, 728)    186368      ['add_1[0][0]']                  \n                                                                                                  \n block4_pool (MaxPooling2D)     (None, 9, 9, 728)    0           ['block4_sepconv2_bn[0][0]']     \n                                                                                                  \n batch_normalization_2 (BatchNo  (None, 9, 9, 728)   2912        ['conv2d_2[0][0]']               \n rmalization)                                                                                     \n                                                                                                  \n add_2 (Add)                    (None, 9, 9, 728)    0           ['block4_pool[0][0]',            \n                                                                  'batch_normalization_2[0][0]']  \n                                                                                                  \n block5_sepconv1_act (Activatio  (None, 9, 9, 728)   0           ['add_2[0][0]']                  \n n)                                                                                               \n                                                                                                  \n block5_sepconv1 (SeparableConv  (None, 9, 9, 728)   536536      ['block5_sepconv1_act[0][0]']    \n 2D)                                                                                              \n                                                                                                  \n block5_sepconv1_bn (BatchNorma  (None, 9, 9, 728)   2912        ['block5_sepconv1[0][0]']        \n lization)                                                                                        \n                                                                                                  \n block5_sepconv2_act (Activatio  (None, 9, 9, 728)   0           ['block5_sepconv1_bn[0][0]']     \n n)                                                                                               \n                                                                                                  \n block5_sepconv2 (SeparableConv  (None, 9, 9, 728)   536536      ['block5_sepconv2_act[0][0]']    \n 2D)                                                                                              \n                                                                                                  \n block5_sepconv2_bn (BatchNorma  (None, 9, 9, 728)   2912        ['block5_sepconv2[0][0]']        \n lization)                                                                                        \n                                                                                                  \n block5_sepconv3_act (Activatio  (None, 9, 9, 728)   0           ['block5_sepconv2_bn[0][0]']     \n n)                                                                                               \n                                                                                                  \n block5_sepconv3 (SeparableConv  (None, 9, 9, 728)   536536      ['block5_sepconv3_act[0][0]']    \n 2D)                                                                                              \n                                                                                                  \n block5_sepconv3_bn (BatchNorma  (None, 9, 9, 728)   2912        ['block5_sepconv3[0][0]']        \n lization)                                                                                        \n                                                                                                  \n add_3 (Add)                    (None, 9, 9, 728)    0           ['block5_sepconv3_bn[0][0]',     \n                                                                  'add_2[0][0]']                  \n                                                                                                  \n block6_sepconv1_act (Activatio  (None, 9, 9, 728)   0           ['add_3[0][0]']                  \n n)                                                                                               \n                                                                                                  \n block6_sepconv1 (SeparableConv  (None, 9, 9, 728)   536536      ['block6_sepconv1_act[0][0]']    \n 2D)                                                                                              \n                                                                                                  \n block6_sepconv1_bn (BatchNorma  (None, 9, 9, 728)   2912        ['block6_sepconv1[0][0]']        \n lization)                                                                                        \n                                                                                                  \n block6_sepconv2_act (Activatio  (None, 9, 9, 728)   0           ['block6_sepconv1_bn[0][0]']     \n n)                                                                                               \n                                                                                                  \n block6_sepconv2 (SeparableConv  (None, 9, 9, 728)   536536      ['block6_sepconv2_act[0][0]']    \n 2D)                                                                                              \n                                                                                                  \n block6_sepconv2_bn (BatchNorma  (None, 9, 9, 728)   2912        ['block6_sepconv2[0][0]']        \n lization)                                                                                        \n                                                                                                  \n block6_sepconv3_act (Activatio  (None, 9, 9, 728)   0           ['block6_sepconv2_bn[0][0]']     \n n)                                                                                               \n                                                                                                  \n block6_sepconv3 (SeparableConv  (None, 9, 9, 728)   536536      ['block6_sepconv3_act[0][0]']    \n 2D)                                                                                              \n                                                                                                  \n block6_sepconv3_bn (BatchNorma  (None, 9, 9, 728)   2912        ['block6_sepconv3[0][0]']        \n lization)                                                                                        \n                                                                                                  \n add_4 (Add)                    (None, 9, 9, 728)    0           ['block6_sepconv3_bn[0][0]',     \n                                                                  'add_3[0][0]']                  \n                                                                                                  \n block7_sepconv1_act (Activatio  (None, 9, 9, 728)   0           ['add_4[0][0]']                  \n n)                                                                                               \n                                                                                                  \n block7_sepconv1 (SeparableConv  (None, 9, 9, 728)   536536      ['block7_sepconv1_act[0][0]']    \n 2D)                                                                                              \n                                                                                                  \n block7_sepconv1_bn (BatchNorma  (None, 9, 9, 728)   2912        ['block7_sepconv1[0][0]']        \n lization)                                                                                        \n                                                                                                  \n block7_sepconv2_act (Activatio  (None, 9, 9, 728)   0           ['block7_sepconv1_bn[0][0]']     \n n)                                                                                               \n                                                                                                  \n block7_sepconv2 (SeparableConv  (None, 9, 9, 728)   536536      ['block7_sepconv2_act[0][0]']    \n 2D)                                                                                              \n                                                                                                  \n block7_sepconv2_bn (BatchNorma  (None, 9, 9, 728)   2912        ['block7_sepconv2[0][0]']        \n lization)                                                                                        \n                                                                                                  \n block7_sepconv3_act (Activatio  (None, 9, 9, 728)   0           ['block7_sepconv2_bn[0][0]']     \n n)                                                                                               \n                                                                                                  \n block7_sepconv3 (SeparableConv  (None, 9, 9, 728)   536536      ['block7_sepconv3_act[0][0]']    \n 2D)                                                                                              \n                                                                                                  \n block7_sepconv3_bn (BatchNorma  (None, 9, 9, 728)   2912        ['block7_sepconv3[0][0]']        \n lization)                                                                                        \n                                                                                                  \n add_5 (Add)                    (None, 9, 9, 728)    0           ['block7_sepconv3_bn[0][0]',     \n                                                                  'add_4[0][0]']                  \n                                                                                                  \n block8_sepconv1_act (Activatio  (None, 9, 9, 728)   0           ['add_5[0][0]']                  \n n)                                                                                               \n                                                                                                  \n block8_sepconv1 (SeparableConv  (None, 9, 9, 728)   536536      ['block8_sepconv1_act[0][0]']    \n 2D)                                                                                              \n                                                                                                  \n block8_sepconv1_bn (BatchNorma  (None, 9, 9, 728)   2912        ['block8_sepconv1[0][0]']        \n lization)                                                                                        \n                                                                                                  \n block8_sepconv2_act (Activatio  (None, 9, 9, 728)   0           ['block8_sepconv1_bn[0][0]']     \n n)                                                                                               \n                                                                                                  \n block8_sepconv2 (SeparableConv  (None, 9, 9, 728)   536536      ['block8_sepconv2_act[0][0]']    \n 2D)                                                                                              \n                                                                                                  \n block8_sepconv2_bn (BatchNorma  (None, 9, 9, 728)   2912        ['block8_sepconv2[0][0]']        \n lization)                                                                                        \n                                                                                                  \n block8_sepconv3_act (Activatio  (None, 9, 9, 728)   0           ['block8_sepconv2_bn[0][0]']     \n n)                                                                                               \n                                                                                                  \n block8_sepconv3 (SeparableConv  (None, 9, 9, 728)   536536      ['block8_sepconv3_act[0][0]']    \n 2D)                                                                                              \n                                                                                                  \n block8_sepconv3_bn (BatchNorma  (None, 9, 9, 728)   2912        ['block8_sepconv3[0][0]']        \n lization)                                                                                        \n                                                                                                  \n add_6 (Add)                    (None, 9, 9, 728)    0           ['block8_sepconv3_bn[0][0]',     \n                                                                  'add_5[0][0]']                  \n                                                                                                  \n block9_sepconv1_act (Activatio  (None, 9, 9, 728)   0           ['add_6[0][0]']                  \n n)                                                                                               \n                                                                                                  \n block9_sepconv1 (SeparableConv  (None, 9, 9, 728)   536536      ['block9_sepconv1_act[0][0]']    \n 2D)                                                                                              \n                                                                                                  \n block9_sepconv1_bn (BatchNorma  (None, 9, 9, 728)   2912        ['block9_sepconv1[0][0]']        \n lization)                                                                                        \n                                                                                                  \n block9_sepconv2_act (Activatio  (None, 9, 9, 728)   0           ['block9_sepconv1_bn[0][0]']     \n n)                                                                                               \n                                                                                                  \n block9_sepconv2 (SeparableConv  (None, 9, 9, 728)   536536      ['block9_sepconv2_act[0][0]']    \n 2D)                                                                                              \n                                                                                                  \n block9_sepconv2_bn (BatchNorma  (None, 9, 9, 728)   2912        ['block9_sepconv2[0][0]']        \n lization)                                                                                        \n                                                                                                  \n block9_sepconv3_act (Activatio  (None, 9, 9, 728)   0           ['block9_sepconv2_bn[0][0]']     \n n)                                                                                               \n                                                                                                  \n block9_sepconv3 (SeparableConv  (None, 9, 9, 728)   536536      ['block9_sepconv3_act[0][0]']    \n 2D)                                                                                              \n                                                                                                  \n block9_sepconv3_bn (BatchNorma  (None, 9, 9, 728)   2912        ['block9_sepconv3[0][0]']        \n lization)                                                                                        \n                                                                                                  \n add_7 (Add)                    (None, 9, 9, 728)    0           ['block9_sepconv3_bn[0][0]',     \n                                                                  'add_6[0][0]']                  \n                                                                                                  \n block10_sepconv1_act (Activati  (None, 9, 9, 728)   0           ['add_7[0][0]']                  \n on)                                                                                              \n                                                                                                  \n block10_sepconv1 (SeparableCon  (None, 9, 9, 728)   536536      ['block10_sepconv1_act[0][0]']   \n v2D)                                                                                             \n                                                                                                  \n block10_sepconv1_bn (BatchNorm  (None, 9, 9, 728)   2912        ['block10_sepconv1[0][0]']       \n alization)                                                                                       \n                                                                                                  \n block10_sepconv2_act (Activati  (None, 9, 9, 728)   0           ['block10_sepconv1_bn[0][0]']    \n on)                                                                                              \n                                                                                                  \n block10_sepconv2 (SeparableCon  (None, 9, 9, 728)   536536      ['block10_sepconv2_act[0][0]']   \n v2D)                                                                                             \n                                                                                                  \n block10_sepconv2_bn (BatchNorm  (None, 9, 9, 728)   2912        ['block10_sepconv2[0][0]']       \n alization)                                                                                       \n                                                                                                  \n block10_sepconv3_act (Activati  (None, 9, 9, 728)   0           ['block10_sepconv2_bn[0][0]']    \n on)                                                                                              \n                                                                                                  \n block10_sepconv3 (SeparableCon  (None, 9, 9, 728)   536536      ['block10_sepconv3_act[0][0]']   \n v2D)                                                                                             \n                                                                                                  \n block10_sepconv3_bn (BatchNorm  (None, 9, 9, 728)   2912        ['block10_sepconv3[0][0]']       \n alization)                                                                                       \n                                                                                                  \n add_8 (Add)                    (None, 9, 9, 728)    0           ['block10_sepconv3_bn[0][0]',    \n                                                                  'add_7[0][0]']                  \n                                                                                                  \n block11_sepconv1_act (Activati  (None, 9, 9, 728)   0           ['add_8[0][0]']                  \n on)                                                                                              \n                                                                                                  \n block11_sepconv1 (SeparableCon  (None, 9, 9, 728)   536536      ['block11_sepconv1_act[0][0]']   \n v2D)                                                                                             \n                                                                                                  \n block11_sepconv1_bn (BatchNorm  (None, 9, 9, 728)   2912        ['block11_sepconv1[0][0]']       \n alization)                                                                                       \n                                                                                                  \n block11_sepconv2_act (Activati  (None, 9, 9, 728)   0           ['block11_sepconv1_bn[0][0]']    \n on)                                                                                              \n                                                                                                  \n block11_sepconv2 (SeparableCon  (None, 9, 9, 728)   536536      ['block11_sepconv2_act[0][0]']   \n v2D)                                                                                             \n                                                                                                  \n block11_sepconv2_bn (BatchNorm  (None, 9, 9, 728)   2912        ['block11_sepconv2[0][0]']       \n alization)                                                                                       \n                                                                                                  \n block11_sepconv3_act (Activati  (None, 9, 9, 728)   0           ['block11_sepconv2_bn[0][0]']    \n on)                                                                                              \n                                                                                                  \n block11_sepconv3 (SeparableCon  (None, 9, 9, 728)   536536      ['block11_sepconv3_act[0][0]']   \n v2D)                                                                                             \n                                                                                                  \n block11_sepconv3_bn (BatchNorm  (None, 9, 9, 728)   2912        ['block11_sepconv3[0][0]']       \n alization)                                                                                       \n                                                                                                  \n add_9 (Add)                    (None, 9, 9, 728)    0           ['block11_sepconv3_bn[0][0]',    \n                                                                  'add_8[0][0]']                  \n                                                                                                  \n block12_sepconv1_act (Activati  (None, 9, 9, 728)   0           ['add_9[0][0]']                  \n on)                                                                                              \n                                                                                                  \n block12_sepconv1 (SeparableCon  (None, 9, 9, 728)   536536      ['block12_sepconv1_act[0][0]']   \n v2D)                                                                                             \n                                                                                                  \n block12_sepconv1_bn (BatchNorm  (None, 9, 9, 728)   2912        ['block12_sepconv1[0][0]']       \n alization)                                                                                       \n                                                                                                  \n block12_sepconv2_act (Activati  (None, 9, 9, 728)   0           ['block12_sepconv1_bn[0][0]']    \n on)                                                                                              \n                                                                                                  \n block12_sepconv2 (SeparableCon  (None, 9, 9, 728)   536536      ['block12_sepconv2_act[0][0]']   \n v2D)                                                                                             \n                                                                                                  \n block12_sepconv2_bn (BatchNorm  (None, 9, 9, 728)   2912        ['block12_sepconv2[0][0]']       \n alization)                                                                                       \n                                                                                                  \n block12_sepconv3_act (Activati  (None, 9, 9, 728)   0           ['block12_sepconv2_bn[0][0]']    \n on)                                                                                              \n                                                                                                  \n block12_sepconv3 (SeparableCon  (None, 9, 9, 728)   536536      ['block12_sepconv3_act[0][0]']   \n v2D)                                                                                             \n                                                                                                  \n block12_sepconv3_bn (BatchNorm  (None, 9, 9, 728)   2912        ['block12_sepconv3[0][0]']       \n alization)                                                                                       \n                                                                                                  \n add_10 (Add)                   (None, 9, 9, 728)    0           ['block12_sepconv3_bn[0][0]',    \n                                                                  'add_9[0][0]']                  \n                                                                                                  \n block13_sepconv1_act (Activati  (None, 9, 9, 728)   0           ['add_10[0][0]']                 \n on)                                                                                              \n                                                                                                  \n block13_sepconv1 (SeparableCon  (None, 9, 9, 728)   536536      ['block13_sepconv1_act[0][0]']   \n v2D)                                                                                             \n                                                                                                  \n block13_sepconv1_bn (BatchNorm  (None, 9, 9, 728)   2912        ['block13_sepconv1[0][0]']       \n alization)                                                                                       \n                                                                                                  \n block13_sepconv2_act (Activati  (None, 9, 9, 728)   0           ['block13_sepconv1_bn[0][0]']    \n on)                                                                                              \n                                                                                                  \n block13_sepconv2 (SeparableCon  (None, 9, 9, 1024)  752024      ['block13_sepconv2_act[0][0]']   \n v2D)                                                                                             \n                                                                                                  \n block13_sepconv2_bn (BatchNorm  (None, 9, 9, 1024)  4096        ['block13_sepconv2[0][0]']       \n alization)                                                                                       \n                                                                                                  \n conv2d_3 (Conv2D)              (None, 5, 5, 1024)   745472      ['add_10[0][0]']                 \n                                                                                                  \n block13_pool (MaxPooling2D)    (None, 5, 5, 1024)   0           ['block13_sepconv2_bn[0][0]']    \n                                                                                                  \n batch_normalization_3 (BatchNo  (None, 5, 5, 1024)  4096        ['conv2d_3[0][0]']               \n rmalization)                                                                                     \n                                                                                                  \n add_11 (Add)                   (None, 5, 5, 1024)   0           ['block13_pool[0][0]',           \n                                                                  'batch_normalization_3[0][0]']  \n                                                                                                  \n block14_sepconv1 (SeparableCon  (None, 5, 5, 1536)  1582080     ['add_11[0][0]']                 \n v2D)                                                                                             \n                                                                                                  \n block14_sepconv1_bn (BatchNorm  (None, 5, 5, 1536)  6144        ['block14_sepconv1[0][0]']       \n alization)                                                                                       \n                                                                                                  \n block14_sepconv1_act (Activati  (None, 5, 5, 1536)  0           ['block14_sepconv1_bn[0][0]']    \n on)                                                                                              \n                                                                                                  \n block14_sepconv2 (SeparableCon  (None, 5, 5, 2048)  3159552     ['block14_sepconv1_act[0][0]']   \n v2D)                                                                                             \n                                                                                                  \n block14_sepconv2_bn (BatchNorm  (None, 5, 5, 2048)  8192        ['block14_sepconv2[0][0]']       \n alization)                                                                                       \n                                                                                                  \n block14_sepconv2_act (Activati  (None, 5, 5, 2048)  0           ['block14_sepconv2_bn[0][0]']    \n on)                                                                                              \n                                                                                                  \n==================================================================================================\nTotal params: 20,861,480\nTrainable params: 20,806,952
…
22)\nplt.plot(history.history['accuracy'], '-r', label=\"Training\")\nplt.plot(history.history['val_accuracy'], '-b', label=\"Validation\")\nplt.xlabel('Epoch #')\nplt.ylabel('Accuracy')\nplt.legend()\n\nplt.show()\n\nModel: \"model\"\n_________________________________________________________________\nLayer (type)                 Output Shape              Param #   \n=================================================================\ninput_1 (InputLayer)         [(None, 28, 28, 1)]       0         \n_________________________________________________________________\nconv2d (Conv2D)              (None, 26, 26, 32)        320       \n_________________________________________________________________\nmax_pooling2d (MaxPooling2D) (None, 13, 13, 32)        0         \n_________________________________________________________________\ndropout (Dropout)            (None, 13, 13, 32)        0         \n_________________________________________________________________\nconv2d_1 (Conv2D)            (None, 11, 11, 64)        18496     \n_________________________________________________________________\nmax_pooling2d_1 (MaxPooling2 (None, 5, 5, 64)          0         \n_________________________________________________________________\ndropout_1 (Dropout)          (None, 5, 5, 64)          0         \n_________________________________________________________________\nflatten (Flatten)            (None, 1600)              0         \n_________________________________________________________________\ndense (Dense)                (None, 150)               240150    \n_________________________________________________________________\ndropout_2 (Dropout)          (None, 150)               0         \n_________________________________________________________________\ndense_1 (Dense)              (None, 10)                1510      \n=================================================================\nTotal params: 260,476\nTrainable params: 260,476\nNon-trainable params: 0\n_________________________________________________________________\nNone\nEpoch 1/20\n844/844 [==============================] - 6s 4ms/step - loss: 0.5395 - accuracy: 0.8229 - val_loss: 0.0923 - val_accuracy: 0.9733\nEpoch 2/20\n844/844 [============
…
)\nplt.plot(history.history['accuracy'], '-r', label=\"Training\")\nplt.plot(history.history['val_accuracy'], '-b', label=\"Validation\")\nplt.xlabel('Epoch #')\nplt.ylabel('Accuracy')\nplt.legend()\n\nplt.show()\n\nModel: \"model_1\"\n_________________________________________________________________\nLayer (type)                 Output Shape              Param #   \n=================================================================\ninput_2 (InputLayer)         [(None, 28, 28, 1)]       0         \n_________________________________________________________________\nconv2d_2 (Conv2D)            (None, 26, 26, 32)        320       \n_________________________________________________________________\nmax_pooling2d_2 (MaxPooling2 (None, 13, 13, 32)        0         \n_________________________________________________________________\ndropout_3 (Dropout)          (None, 13, 13, 32)        0         \n_________________________________________________________________\nconv2d_3 (Conv2D)            (None, 11, 11, 64)        18496     \n_________________________________________________________________\nmax_pooling2d_3 (MaxPooling2 (None, 5, 5, 64)          0         \n_________________________________________________________________\ndropout_4 (Dropout)          (None, 5, 5, 64)          0         \n_________________________________________________________________\nflatten_1 (Flatten)          (None, 1600)              0         \n_________________________________________________________________\ndense_2 (Dense)              (None, 150)               240150    \n_________________________________________________________________\ndropout_5 (Dropout)          (None, 150)               0         \n_________________________________________________________________\nexponential_layer (Exponenti (None, 150)               0         \n_________________________________________________________________\ndense_3 (Dense)              (None, 10)                1510      \n=================================================================\nTotal params: 260,476\nTrainable params: 260,476\nNon-trainable params: 0\n_________________________________________________________________\nNone\nEpoch 1/20\n844/844 [==============================] - 4s 4ms/step - loss: 1.3410 - accuracy: 0.5668 - val_loss: 0.1330 - val_accuracy: 0.9615\nEpoch 2/20\n844/844 [============
…
t(X_train, X_train, epochs=30, batch_size=128)\n\nModel: \"model\"\n__________________________________________________________________________________________________\nLayer (type)                    Output Shape         Param #     Connected to                     \n==================================================================================================\ninput_1 (InputLayer)            [(None, 28, 28, 1)]  0                                            \n__________________________________________________________________________________________________\nconv2d (Conv2D)                 (None, 13, 13, 32)   320         input_1[0][0]                    \n__________________________________________________________________________________________________\nconv2d_1 (Conv2D)               (None, 6, 6, 64)     18496       conv2d[0][0]                     \n__________________________________________________________________________________________________\nflatten (Flatten)               (None, 2304)         0           conv2d_1[0][0]                   \n__________________________________________________________________________________________________\ndense (Dense)                   (None, 16)           36880       flatten[0][0]                    \n__________________________________________________________________________________________________\ndense_1 (Dense)                 (None, 2)            34          dense[0][0]                      \n__________________________________________________________________________________________________\ndense_2 (Dense)                 (None, 2)            34          dense[0][0]                      \n__________________________________________________________________________________________________\nsampling_layer (SamplingLayer)  (None, 2)            0           dense_1[0][0]                    \n                                                                 dense_2[0][0]                    \n==================================================================================================\nTotal params: 55,764\nTrainable params: 55,764\nNon-trainable params: 0\n__________________________________________________________________________________________________\nNone\nModel: \"model_1\"\n_________________________________________________________________\nLayer (type)                 Output Shape              Param #   \n=================================================================\ninput_2 (InputLayer)         [(None, 2)]               0         \n_________________________________________________________________\ndense_3 (Dense)              (None, 3136)              9408      \n_________________________________________________________________\nreshape (Reshape)            (None, 7, 7, 64)          0         \n_________________________________________________________________\nconv2d_transpose (Conv2DTran (None, 14, 14, 64)        36928     \n_________________________________________________________________\nconv2d_transpose_1 (Conv2DTr (None, 28, 28, 32)        18464     \n_________________________________________________________________\nconv2d_transpose_2 (Conv2DTr (None, 28, 28, 1)         289       \n=================================================================\nTotal params: 65,089\nTrainable params: 65,089\nNon-trainable params: 0\n_________________________________________________________________\nNone\nEpoch 1/30\n469/469 [==============================] - 4s 8ms/step - loss: 393.0657 - reconstruction_loss: 284.5855 - kl_loss: 6.9494\nEpoch 2/30\n469/469 [======================
…
